weights/continue_train.npy (npy, 1408 bytes, 1 tensors)

array f8 [20, 8]
4.504164283460643 3.4678425709231835 -9.498047026801114 -4.204742876626478 -4.69405724373723 7.871848681865188 -8.33796613358048 -5.294162819964015
-3.053931304199602 -2.6907312371843055 -8.927038329134295 -8.320965354243718 -2.758247074920506 -3.174415837813516 4.154475146520086 -5.187824256174462
2.8124793879287004 3.4678425709231835 -9.498047026801114 -4.204742876626478 -4.69405724373723 -8.558812523669895 -8.33796613358048 -7.377511657833011
2.8124793879287004 3.4678425709231835 -7.939894985923168 -4.204742876626478 -1.088188412571931 -8.558812523669895 1.533966146291558 -7.377511657833011
9.350485891454309 3.4678425709231835 -7.939894985923168 -4.204742876626478 -4.69405724373723 7.871848681865188 1.533966146291558 -7.377511657833011
4.504164283460643 -7.910118929457715 -9.498047026801114 7.73174104139148 -4.69405724373723 7.871848681865188 -8.33796613358048 -5.294162819964015
2.8124793879287004 3.4678425709231835 -7.939894985923168 -4.204742876626478 -4.69405724373723 -8.558812523669895 1.533966146291558 -5.294162819964015
3.6988489743353945 -8.207186895745195 -3.2470881212500524 7.968750626473984 -6.5755002272302665 -2.731039627499352 -8.031217118745664 -2.459018473433485
-4.857561854702794 9.577736196752259 -4.865535497521776 -4.186628722699162 -0.4563803256151484 -3.590859967352924 -5.2173955619989005 6.458342657221479
-4.555195366608293 -8.632621113632307 -0.009080695424755092 -2.2595792179122327 2.3339891883992436 -8.196720244842862 5.474181499626422 -1.5675597185614176
-8.187703046796699 7.869406940220909 -7.090616459619879 -8.497463761815887 4.8740460484679 -8.454362248214382 8.611527666580308 -6.134226056632583
-6.017359406196041 -7.188658810218693 -4.353123678590951 4.117099440548078 5.7215967773317296 -7.634217836347941 7.261865143361565 -5.3486041858102285
-9.927181207235316 -9.637599716498212 -1.585717256188051 7.2272772857205325 1.063048357961371 -3.5687521663901673 0.6586732165746074 3.896401531064269
-5.484587183401091 -7.677019107448675 1.7477658761478825 4.90897319638526 0.7012303835178475 2.7320966052696463 3.176355448774853 -7.086366016790901
4.504164283460643 3.4678425709231835 -9.498047026801114 -4.204742876626478 -4.69405724373723 7.871848681865188 4.154475146520086 -5.294162819964015
-3.053931304199602 -2.6907312371843055 -8.927038329134295 -4.204742876626478 -2.758247074920506 -3.174415837813516 4.154475146520086 -5.294162819964015
4.504164283460643 3.4678425709231835 -8.927038329134295 -8.320965354243718 -4.69405724373723 -3.174415837813516 -8.33796613358048 -5.187824256174462
4.504164283460643 3.4678425709231835 -8.927038329134295 -8.320965354243718 -2.758247074920506 7.871848681865188 -8.33796613358048 -5.187824256174462
4.504164283460643 -2.6907312371843055 -9.498047026801114 -4.204742876626478 -2.758247074920506 7.871848681865188 -8.33796613358048 -5.294162819964015
4.504164283460643 -2.6907312371843055 -9.498047026801114 -8.320965354243718 -2.758247074920506 -3.174415837813516 -8.33796613358048 -5.294162819964015
00000000: 5419 55a4 4304 1240 4455 ee3e 24be 0b40
00000010: 2ef6 1705 00ff 22c0 7acc dc1d a8d1 10c0
00000020: fc9c 2df1 b6c6 12c0 d0af 9ee6 c57c 1f40
00000030: 78c4 a5e5 09ad 20c0 40c7 ad04 392d 15c0
00000040: b224 1e89 736e 08c0 f841 5019 9e86 05c0
00000050: 628a 93c4 a4da 21c0 6c40 2792 55a4 20c0
00000060: e491 a8d7 e310 06c0 0882 7a21 3465 09c0
00000070: f264 99bb 2e9e 1040 cca8 7600 55c0 14c0
00000080: 789f 7e31 f57f 0640 4455 ee3e 24be 0b40
00000090: 2ef6 1705 00ff 22c0 7acc dc1d a8d1 10c0
000000a0: fc9c 2df1 b6c6 12c0 cd83 d3ac 1c1e 21c0
000000b0: 78c4 a5e5 09ad 20c0 9001 816a 9282 1dc0
000000c0: 789f 7e31 f57f 0640 4455 ee3e 24be 0b40
000000d0: 88db c8d4 73c2 1fc0 7acc dc1d a8d1 10c0
000000e0: 201f be40 3869 f1bf cd83 d3ac 1c1e 21c0
000000f0: f0e4 f715 208b f83f 9001 816a 9282 1dc0
00000100: e602 03e3 72b3 2240 4455 ee3e 24be 0b40
00000110: 88db c8d4 73c2 1fc0 7acc dc1d a8d1 10c0
00000120: fc9c 2df1 b6c6 12c0 d0af 9ee6 c57c 1f40
00000130: f0e4 f715 208b f83f 9001 816a 9282 1dc0
00000140: 5419 55a4 4304 1240 36f7 7537 f6a3 1fc0
00000150: 2ef6 1705 00ff 22c0 68ab 0786 4ded 1e40
00000160: fc9c 2df1 b6c6 12c0 d0af 9ee6 c57c 1f40
00000170: 78c4 a5e5 09ad 20c0 40c7 ad04 392d 15c0
00000180: 789f 7e31 f57f 0640 4455 ee3e 24be 0b40
00000190: 88db c8d4 73c2 1fc0 7acc dc1d a8d1 10c0
000001a0: fc9c 2df1 b6c6 12c0 cd83 d3ac 1c1e 21c0
000001b0: f0e4 f715 208b f83f 40c7 ad04 392d 15c0
000001c0: c8e8 8c21 3e97 0d40 50c5 9a66 146a 20c0
000001d0: 12fe 3f56 09fa 09c0 b8bd 0a2a 00e0 1f40
000001e0: a22d 7bee 4f4d 1ac0 9684 e14d 2bd9 05c0
000001f0: 0b2d b0b0 fb0f 20c0 d840 9de0 11ac 03c0
00000200: 80fb e0b1 246e 13c0 6288 ed09 cd27 2340
00000210: 5088 fdef 4e76 13c0 d8f2 9199 1bbf 10c0
00000220: 6083 43d3 5535 ddbf 1a5f 62ca 14ba 0cc0
00000230: c252 34f1 9cde 14c0 1083 0cc7 57d5 1940
00000240: b6e4 5922 8538 12c0 a69e 23ea e643 21c0
00000250: 007c fe4e e698 82bf 003c dd44 9e13 02c0
00000260: 8023 0b86 02ac 0240 561f 1484 b864 20c0
00000270: 0c0e c5d5 8fe5 1540 d8f8 db7f b914 f9bf
00000280: e8b3 1e9d 1a60 20c0 2ca8 1cd0 457a 1f40
00000290: ce2f aa8f ca5c 1cc0 84e3 f791 b3fe 20c0
000002a0: 7c78 65ed 057f 1340 513c 292b a2e8 20c0
000002b0: 8c1f 8127 1a39 2140 2e08 2e8e 7289 18c0
000002c0: 568f 07aa c611 18c0 5bf7 6fc6 2fc1 1cc0
000002d0: 24f7 eb40 9969 11c0 b422 6eea e877 1040
000002e0: b427 fe43 eae2 1640 fd9d 8666 7089 1ec0
000002f0: 14cd 4a60 260c 1d40 ed36 e57e f864 15c0
00000300: 3d15 c57e b7da 23c0 ee98 5478 7346 23c0
00000310: 107d c00e 195f f9bf 602c 7560 bbe8 1c40
00000320: 602b b8fe 3e02 f13f 3c66 91ef cd8c 0cc0
00000330: d00c 7eda d913 e53f fc0a e090 d42b 0f40
00000340: e212 639f 37f0 15c0 6409 357f 44b5 1ec0
00000350: 48eb f159 d9f6 fb3f 3ea9 9dde c9a2 1340
00000360: 5076 85b3 7a70 e63f 802a 0977 55db 0540
00000370: d8ac a70b 2d69 0940 2c69 4655 7058 1cc0
00000380: 5419 55a4 4304 1240 4455 ee3e 24be 0b40
00000390: 2ef6 1705 00ff 22c0 7acc dc1d a8d1 10c0
000003a0: fc9c 2df1 b6c6 12c0 d0af 9ee6 c57c 1f40
000003b0: f264 99bb 2e9e 1040 40c7 ad04 392d 15c0
000003c0: b224 1e89 736e 08c0 f841 5019 9e86 05c0
000003d0: 628a 93c4 a4da 21c0 7acc dc1d a8d1 10c0
000003e0: e491 a8d7 e310 06c0 0882 7a21 3465 09c0
000003f0: f264 99bb 2e9e 1040 40c7 ad04 392d 15c0
00000400: 5419 55a4 4304 1240 4455 ee3e 24be 0b40
00000410: 628a 93c4 a4da 21c0 6c40 2792 55a4 20c0
00000420: fc9c 2df1 b6c6 12c0 0882 7a21 3465 09c0
00000430: 78c4 a5e5 09ad 20c0 cca8 7600 55c0 14c0
00000440: 5419 55a4 4304 1240 4455 ee3e 24be 0b40
00000450: 628a 93c4 a4da 21c0 6c40 2792 55a4 20c0
00000460: e491 a8d7 e310 06c0 d0af 9ee6 c57c 1f40
00000470: 78c4 a5e5 09ad 20c0 cca8 7600 55c0 14c0
00000480: 5419 55a4 4304 1240 f841 5019 9e86 05c0
00000490: 2ef6 1705 00ff 22c0 7acc dc1d a8d1 10c0
000004a0: e491 a8d7 e310 06c0 d0af 9ee6 c57c 1f40
000004b0: 78c4 a5e5 09ad 20c0 40c7 ad04 392d 15c0
000004c0: 5419 55a4 4304 1240 f841 5019 9e86 05c0
000004d0: 2ef6 1705 00ff 22c0 6c40 2792 55a4 20c0
000004e0: e491 a8d7 e310 06c0 0882 7a21 3465 09c0
000004f0: 78c4 a5e5 09ad 20c0 40c7 ad04 392d 15c0
